backend: tensorflow
class_name: Sequential
config:
- class_name: LSTM
  config:
    activation: tanh
    activity_regularizer: null
    batch_input_shape: !!python/tuple [null, null, 300]
    bias_constraint: null
    bias_initializer:
      class_name: Zeros
      config: {}
    bias_regularizer: null
    dropout: 0.0
    dtype: float32
    go_backwards: false
    implementation: 0
    kernel_constraint: null
    kernel_initializer:
      class_name: VarianceScaling
      config: {distribution: uniform, mode: fan_avg, scale: 1.0, seed: null}
    kernel_regularizer: null
    name: lstm_1
    recurrent_activation: hard_sigmoid
    recurrent_constraint: null
    recurrent_dropout: 0.0
    recurrent_initializer:
      class_name: Orthogonal
      config: {gain: 1.0, seed: null}
    recurrent_regularizer: null
    return_sequences: true
    stateful: false
    trainable: true
    unit_forget_bias: true
    units: 128
    unroll: false
    use_bias: true
- class_name: Dropout
  config: {name: dropout_1, rate: 0.1, trainable: true}
- class_name: LSTM
  config:
    activation: tanh
    activity_regularizer: null
    bias_constraint: null
    bias_initializer:
      class_name: Zeros
      config: {}
    bias_regularizer: null
    dropout: 0.0
    go_backwards: false
    implementation: 0
    kernel_constraint: null
    kernel_initializer:
      class_name: VarianceScaling
      config: {distribution: uniform, mode: fan_avg, scale: 1.0, seed: null}
    kernel_regularizer: null
    name: lstm_2
    recurrent_activation: hard_sigmoid
    recurrent_constraint: null
    recurrent_dropout: 0.0
    recurrent_initializer:
      class_name: Orthogonal
      config: {gain: 1.0, seed: null}
    recurrent_regularizer: null
    return_sequences: true
    stateful: false
    trainable: true
    unit_forget_bias: true
    units: 64
    unroll: false
    use_bias: true
- class_name: Dropout
  config: {name: dropout_2, rate: 0.1, trainable: true}
- class_name: LSTM
  config:
    activation: tanh
    activity_regularizer: null
    bias_constraint: null
    bias_initializer:
      class_name: Zeros
      config: {}
    bias_regularizer: null
    dropout: 0.0
    go_backwards: false
    implementation: 0
    kernel_constraint: null
    kernel_initializer:
      class_name: VarianceScaling
      config: {distribution: uniform, mode: fan_avg, scale: 1.0, seed: null}
    kernel_regularizer: null
    name: lstm_3
    recurrent_activation: hard_sigmoid
    recurrent_constraint: null
    recurrent_dropout: 0.0
    recurrent_initializer:
      class_name: Orthogonal
      config: {gain: 1.0, seed: null}
    recurrent_regularizer: null
    return_sequences: false
    stateful: false
    trainable: true
    unit_forget_bias: true
    units: 32
    unroll: false
    use_bias: true
- class_name: Dropout
  config: {name: dropout_3, rate: 0.1, trainable: true}
- class_name: Dense
  config:
    activation: linear
    activity_regularizer: null
    bias_constraint: null
    bias_initializer:
      class_name: Zeros
      config: {}
    bias_regularizer: null
    kernel_constraint: null
    kernel_initializer:
      class_name: VarianceScaling
      config: {distribution: uniform, mode: fan_avg, scale: 1.0, seed: null}
    kernel_regularizer: null
    name: dense_1
    trainable: true
    units: 32
    use_bias: true
- class_name: Activation
  config: {activation: relu, name: activation_1, trainable: true}
- class_name: Dense
  config:
    activation: linear
    activity_regularizer: null
    bias_constraint: null
    bias_initializer:
      class_name: Zeros
      config: {}
    bias_regularizer: null
    kernel_constraint: null
    kernel_initializer:
      class_name: VarianceScaling
      config: {distribution: uniform, mode: fan_avg, scale: 1.0, seed: null}
    kernel_regularizer: null
    name: dense_2
    trainable: true
    units: 4
    use_bias: true
- class_name: Activation
  config: {activation: relu, name: activation_2, trainable: true}
keras_version: 2.0.4
